model.onnx (onnx, 12991 bytes, 3 tensors)

conv1.bias f4 [32]
-0.199737 -0.062208865 0.099401206 0.103629835 -0.106707126 -0.11633028 0.08119057 0.06990868
-0.17368335 -0.043431558 -0.12532997 0.07021873 -0.1262612 -0.06026338 0.032578047 -0.23041484
0.089629166 0.030209748 -0.19508311 -0.011080672 -0.22602017 0.063180596 0.094383754 0.029704064
-0.09717077 -0.06064684 0.09336805 -0.26421273 0.07868993 0.069071926 0.06011475 -0.16684821
00000000: db87 4cbe b9ce 7ebd dc92 cb3d e13b d43d
00000010: 4489 dabd 923e eebd 3e47 a63d 482c 8f3d
00000020: 0cda 31be 4ae5 31bd 8056 00be d6ce 8f3d
00000030: 9e4a 01be bcd6 76bd 8f70 053d def1 6bbe
00000040: 7f8f b73d 6f7a f73c dec3 47be b58b 35bc
00000050: d571 67be d464 813d 454c c13d f055 f33c
00000060: 7801 c7bd d268 78bd c037 bf3d e446 87be
00000070: 3028 a13d 9575 8d3d e23a 763d 42da 2abe

conv2.bias f4 [64]
1.6945978 -0.049139112 0.4588992 0.54938716 0.5561661 1.003528 1.3935581 0.48266497
0.61433715 0.23380701 0.8800096 1.0329326 0.5726341 0.33612585 0.4258272 1.0571519
-1.3019841 0.33650136 0.15206139 1.5736814 0.39875662 1.7432355 0.34755284 1.1752869
-0.13899463 0.25958428 1.022109 0.17587632 1.3090576 -0.04983057 1.2001 0.41355246
0.01621458 0.7284819 0.89541864 0.29566696 -0.8562554 0.24441838 0.9320419 1.3832747
1.0607718 1.1067083 1.418911 1.5080485 0.6542942 0.7548994 1.836087 -0.052475765
-0.35619298 -0.3260892 1.2329308 0.29127336 0.23920414 0.056439325 0.60553694 0.9834657
0.6217753 0.05841723 -0.09131864 0.9777868 0.8151828 0.6200357 0.79750013 0.24885157
00000000: 95e8 d83f 1846 49bd d6f4 ea3e a3a4 0c3f
00000010: e760 0e3f 9b73 803f 1d60 b23f dd1f f73e
00000020: 3345 1d3f 1b6b 6f3e 4f48 613f 2337 843f
00000030: 2698 123f b018 ac3e 0606 da3e c150 873f
00000040: 6aa7 a6bf e849 ac3e fbb5 1b3e 646e c93f
00000050: d429 cc3e 5722 df3f 72f2 b13e cd6f 963f
00000060: 9c54 0ebe 3be8 843e 78d4 823f ec18 343e
00000070: 338f a73f 241b 4cbd e09c 993f 26bd d33e
00000080: 70d4 843c ca7d 3a3f 283a 653f a961 973e
00000090: 8e33 5bbf d048 7a3e 4c9a 6e3f 250f b13f
000000a0: 5fc7 873f 9ea8 8d3f e09e b53f bc07 c13f
000000b0: d37f 273f 1641 413f e604 eb3f d4f0 56bd
000000c0: ed5e b6be 2af5 a6be add0 9d3f c821 953e
000000d0: eef1 743e ec2c 673d 7804 1b3f 68c4 7b3f
000000e0: ab2c 1f3f e846 6f3d 4405 bbbd 3c50 7a3f
000000f0: d2af 503f a9ba 1e3f f828 4c3f f2d2 7e3e

fc2.bias f4 [10]
0.016083546 0.09753362 0.04758324 -0.0017632768 0.026097868 -0.027948806 -0.07851057 0.024623554
0.018152239 0.03019871
00000000: a4c1 833c b5bf c73d a5e6 423d c01d e7ba
00000010: 32cb d53c e5f4 e4bc 26ca a0bd 56b7 c93c
00000020: 01b4 943c 4963 f73c
